…
2019-03-09 06:53:52.753307: I tensorflow/core/common_runtime/gpu/gpu_device.cc:1001] 0:   N 
2019-03-09 06:53:52.753866: I tensorflow/core/common_runtime/gpu/gpu_device.cc:1115] Created TensorFlow device (/job:localhost/replica:0/task:0/device:GPU:0 with 10134 MB memory) -> physical GPU (device: 0, name: GeForce GTX 1080 Ti, pci bus id: 0000:03:00.0, compute capability: 6.1)
start 2019-03-09 06:53:23
accusation
/tmp/pycharm_project_414/Model/model.conf
_________________________________________________________________
Layer (type)                 Output Shape              Param #   
=================================================================
Embedding (Embedding)        (None, 400, 512)          40960512  
_________________________________________________________________
conv1d (Conv1D)              (None, 400, 512)          786944    
_________________________________________________________________
global_max_pooling1d (Global (None, 512)               0         
_________________________________________________________________
batch_normalization (BatchNo (None, 512)               2048      
_________________________________________________________________
dense (Dense)                (None, 1000)              513000    
_________________________________________________________________
dropout (Dropout)            (None, 1000)              0         
_________________________________________________________________
dense_1 (Dense)              (None, 202)               202202    
=================================================================
Total params: 42,464,706
Trainable params: 42,463,682
Non-trainable params: 1,024
_________________________________________________________________
Epoch 1/1
 - 582s - loss: 0.2758
0 Accu:
0.9373999041417767
0.913119717568942
0.9015582806307939
0 f1:
0.8015416683141723
0.7788886169814387
0.7947383397458886
   0       1        2         3
…
