…
2019-03-10 00:54:45.902284: I tensorflow/core/common_runtime/gpu/gpu_device.cc:1001] 0:   N 
2019-03-10 00:54:45.903400: I tensorflow/core/common_runtime/gpu/gpu_device.cc:1115] Created TensorFlow device (/job:localhost/replica:0/task:0/device:GPU:0 with 10134 MB memory) -> physical GPU (device: 0, name: GeForce GTX 1080 Ti, pci bus id: 0000:03:00.0, compute capability: 6.1)
start 2019-03-10 00:54:15
accusation
/tmp/pycharm_project_414/Model/model.conf
_________________________________________________________________
Layer (type)                 Output Shape              Param #   
=================================================================
Embedding (Embedding)        (None, 400, 512)          40960512  
_________________________________________________________________
conv1d_1 (Conv1D)            (None, 400, 512)          786944    
_________________________________________________________________
global_max_pooling1d_1 (Glob (None, 512)               0         
_________________________________________________________________
batch_normalization_1 (Batch (None, 512)               2048      
_________________________________________________________________
dense_1 (Dense)              (None, 1000)              513000    
_________________________________________________________________
dropout_1 (Dropout)          (None, 1000)              0         
_________________________________________________________________
dense_2 (Dense)              (None, 183)               183183    
=================================================================
Total params: 42,445,687
Trainable params: 42,444,663
Non-trainable params: 1,024
_________________________________________________________________
Epoch 1/1
 - 599s - loss: 0.3513
0 Accu:
0.9171410869387325
0.9066317524519832
0.8625135896566639
0 f1:
0.7648807966961242
0.7695347096982992
0.762863897521934
   0         1         2         3
…
