…
TensorFlow device (/job:localhost/replica:0/task:0/device:GPU:0 with 10134 MB memory) -> physical GPU (device: 0, name: GeForce GTX 1080 Ti, pci bus id: 0000:03:00.0, compute capability: 6.1)start 2019-03-10 16:03:34accusation/tmp/pycharm_project_414/Model/model.conf__________________________________________________________________________________________________Layer (type)                    Output Shape         Param #     Connected to                     ==================================================================================================input_1 (InputLayer)            (None, 400)          0                                            __________________________________________________________________________________________________embedding (Embedding)           (None, 400, 512)     40960512    input_1[0][0]                    __________________________________________________________________________________________________bidirectional (Bidirectional)   (None, 400, 512)     1574912     embedding[0][0]                  __________________________________________________________________________________________________global_max_pooling1d (GlobalMax (None, 512)          0           bidirectional[0][0]              __________________________________________________________________________________________________global_average_pooling1d (Globa (None, 512)          0           bidirectional[0][0]              __________________________________________________________________________________________________concatenate (Concatenate)       (None, 1024)         0           global_max_pooling1d[0][0]                                                                        global_average_pooling1d[0][0]   __________________________________________________________________________________________________dense (Dense)                   (None, 256)          262400      concatenate[0][0]                __________________________________________________________________________________________________dropout (Dropout)               (None, 256)          0           dense[0][0]                      __________________________________________________________________________________________________dense_1 (Dense)                 (None, 128)          32896       dropout[0][0]                    __________________________________________________________________________________________________dropout_1 (Dropout)             (None, 128)          0           dense_1[0][0]                    __________________________________________________________________________________________________dense_2 (Dense)                 (None, 1)            129         dropout_1[0][0]                  ==================================================================================================Total params: 42,830,849Trainable params: 42,830,849Non-trainable params: 0__________________________________________________________________________________________________Epoch 1/1    512/1625313 [..............................] - ETA: 5:33:24 - loss
…
